model_params/model.params (torch, 46580 bytes, 5 tensors)

lstm.weight_ih_l0 f4 [200, 3]
000000 88 82 f4 3d 12 c4 8b 3d 2d 70 30 be 4b 79 be bd
       0.11938959 0.06824507 -0.17230292 -0.093004785
000010 a4 1d 74 be 62 01 84 3e b3 43 cf bd 29 30 1c 3d
       -0.23839432 0.25782305 -0.101203345 0.038131867
000020 73 e0 4a be 2f 93 54 3e a5 e7 aa 3c 60 cf 17 39
       -0.19812183 0.20759271 0.02086241 0.00014477735
000030 fd ab 81 3e 43 6f 6f 3e 15 69 ee bc 86 0d a0 3d
       0.2532653 0.23382287 -0.029102841 0.078150794
000040 7b 80 68 be 52 41 5c be 1e 3a 12 3d 6d 46 b0 bd
       -0.22705261 -0.21509293 0.035699956 -0.08607183
000050 bc cc 80 be 1d dd 10 bf e8 05 20 be 73 fd c0 be
       -0.251562 -0.5658739 -0.15627253 -0.37693366
000060 37 58 20 be d7 2e fb 3c d4 65 53 3e 3c cb 89 3c
       -0.15658651 0.030661983 0.20644313 0.016820543
000070 2d 2c 07 3d 27 08 a5 be 10 cd 02 be ac 80 f5 bd
       0.033001114 -0.32232782 -0.12773538 -0.11987433
000080 c6 46 4d bd a0 83 30 be 12 1a fc 3d b4 60 ae ba
       -0.050116323 -0.17237711 0.1230966 -0.0013303966
000090 c3 6e 9a be 33 5e 27 be cf 6d 53 be 12 48 08 3e
       -0.3016263 -0.16344528 -0.20647357 0.13308743
0000a0 e1 d8 6f bd 24 ff e3 bd 95 ff 85 3e 81 e2 ec bd
       -0.05855644 -0.111326486 0.26171556 -0.1156664
0000b0 22 1d 9f be 62 23 b0 ba ef 9c 42 be a5 59 3c bd
       -0.31076914 -0.0013438279 -0.19005178 -0.04598393
0000c0 26 c6 12 3e 44 90 9b bd 9f 8e 66 3e 1c 47 fe bd
       0.143334 -0.07595876 0.22515343 -0.12415907
0000d0 42 7b e0 bd da 1d 87 3e cc ed 10 be 1f 7d 59 be
       -0.109610096 0.26389962 -0.14153212 -0.21239136
0000e0 0b ae 10 3e 86 d1 dd 3d 89 31 c6 bc 28 93 01 bf
       0.14128892 0.10830979 -0.024193542 -0.5061517
0000f0 7d 00 a3 3d d5 00 4a 3d 5f 0d 1d be 23 bd 21 3c
       0.079590775 0.0493172 -0.15337132 0.009871754
000100 92 fd 91 bd cc 76 c6 3d fb c6 80 be 0c 69 a7 3d
       -0.07128443 0.096906275 -0.2515181 0.08174333
000110 18 ba cc 3c 7a 22 a9 be 52 0f 79 bd e3 d2 60 be
       0.02499108 -0.33034116 -0.060805626 -0.21955447
000120 c2 97 8c 3e 15 f6 35 bc 31 4b d6 3e 53 dc c8 bd
       0.27459532 -0.011106034 0.41854241 -0.098076485
000130 dd 7d 41 be b8 f8 99 bd c0 2f 21 bd 81 e9 42 be
       -0.1889567 -0.075181425 -0.03935218 -0.19034387
000140 33 ec 00 3e 19 e7 24 3d ef c0 62 be 97 ad 65 3c
       0.12590103 0.040259454 -0.22143911 0.014018438
000150 04 28 5d be 6b 57 d7 bd 44 1c 54 3d 11 1f d8 bd
       -0.21597296 -0.105147205 0.05178477 -0.105528004
000160 8a ab 95 3c 77 55 01 3c 6e f9 80 bc 5d 01 56 be
       0.018270273 0.007893912 -0.015743937 -0.20898958
000170 f7 79 3a 3e 4f ff ec 3d bf 89 e7 3d f1 ec 26 bd
       0.18210588 0.11572134 0.1130557 -0.04075331
000180 00 ca e4 3d 24 23 62 be f0 fd b5 3e ac 1e 87 3d
       0.11171341 -0.22083718 0.355453 0.06597647
000190 b6 85 21 3b 5d 26 32 bd 38 0e d7 bd b9 b8 18 be
       0.0024646348 -0.043493617 -0.10500759 -0.14914216
0001a0 10 38 24 be 7f f5 1d 3e f3 bd 3f be c7 f1 b7 3d
       -0.16037011 0.1542568 -0.18724804 0.08981662
0001b0 db 8a 42 be b9 40 8f 3c 9c 82 c3 3c 92 9a 0d bd
       -0.18998282 0.017486917 0.02386599 -0.034571238
0001c0 b3 6f 4c be e5 fe b4 3a 53 cc 8e 3e d3 fc 16 3e
       -0.19964485 0.0013808875 0.27890262 0.14744882
0001d0 ae 1e 50 3f 3a 08 75 3d bf c6 ef bd 6b b8 1f 3e
       0.81296813 0.0598223 -0.1170783 0.15597694
0001e0 c9 01 d8 bd 62 00 5b be 89 eb b4 3d 61 fe b7 3c
       -0.105472155 -0.21386865 0.08833987 0.022460165
0001f0 f3 ca 57 bd b3 4a 11 be bc 21 f6 3c 9d 7b a0 be
       -0.05268378 -0.14188652 0.030045383 -0.3134431
000200 48 db 94 3d a5 21 0a be a3 fa 31 be e1 97 a5 be
       0.07268387 -0.13489397 -0.17380767 -0.32342437
000210 09 d7 94 bd d1 cc 01 3e de bd 50 bd b3 10 15 be
       -0.07267577 0.12675788 -0.05096232 -0.14557151
000220 04 d2 6c 3d 43 de 77 bc 85 66 6e 3e fa 73 47 3e
       0.057817474 -0.015128675 0.23281296 0.19477835
000230 fb 85 6e 3d 1a 1a 1d be 9c 0d 50 3d 60 5a 1f 3d
       0.058233242 -0.15341988 0.05079423 0.038904548
000240 0f 85 d6 3d e1 45 56 bd 06 20 8e be 78 26 02 be
       0.10474598 -0.052312735 -0.27758807 -0.12709987
000250 35 be c9 3b 1b 1d e9 bd bc d3 35 be 9c 8d 10 bd
       0.0061567076 -0.113825046 -0.17756552 -0.0352913
000260 1d 2d 65 be c5 25 4f 3e 68 38 6f 3d 62 f6 a2 3e
       -0.2238049 0.20229252 0.058403403 0.318286
000270 27 03 1f bd dc 7d 01 bd 7b 7f a9 3e 12 55 91 3d
       -0.038821366 -0.03161417 0.33105072 0.07096304
000280 52 e1 29 3e 4d f6 24 bc 39 f4 40 3e db c0 29 3e
       0.16589859 -0.010068488 0.18843164 0.16577475
000290 36 28 7f be ed b8 1b be a0 41 da bd db 74 bf 3d
       -0.24917683 -0.15207262 -0.10657048 0.0934846
0002a0 4f d6 77 bd e2 f9 68 bd fd fe 48 3e a7 c4 02 bc
       -0.060507115 -0.05687893 0.1962852 -0.007981456
0002b0 66 ee 99 bd 68 dc a9 3e 18 2b b5 3c b9 2c 57 be
       -0.07516174 0.3317597 0.022115275 -0.21013154
0002c0 34 8c 01 3f 97 91 c5 bd ab a6 a7 bd 83 4a 16 bf
       0.5060456 -0.0964691 -0.08186086 -0.58707446
0002d0 f2 e3 68 3c 94 48 9a bc 47 1b 16 be b6 7d c1 bd
       0.014214503 -0.018833436 -0.14658843 -0.094478056
0002e0 6a 4e 1c be cc c9 8b 3e 2b 16 9a 3d d7 fb a6 bc
       -0.15264288 0.27302396 0.075237595 -0.020383758
0002f0 af b2 73 bd 38 8b 09 3e b4 d0 93 bc 45 d4 04 bd
       -0.059496578 0.13432014 -0.018043853 -0.032429
000300 3c 7b 43 bd 54 11 5b 3d ee 3f 20 bf a6 76 70 be
       -0.047724947 0.053483322 -0.6259755 -0.23482761
000310 eb a1 c6 bd 0f bd ba be 47 ca 9c ba fe 99 55 be
       -0.09698852 -0.36472365 -0.0011962139 -0.20859525
000320 50 57 0a be 40 f0 af bd 54 c3 9d bd 26 f4 cb 3d
       -0.1350987 -0.08590746 -0.077032715 0.09958677
000330 4d 8b 20 3e c3 73 85 3d da 0b 88 3e 5d bc 1e bc
       0.15678139 0.065162204 0.26571542 -0.009688464
000340 36 0a d6 bd 2f 0c 1a 3e d2 18 bf be c2 5f e4 bd
       -0.10451166 0.1504371 -0.37323624 -0.11151077
000350 4e 79 19 bf c7 de 38 be cf 78 16 be a0 2c 69 3c
       -0.5995072 -0.18053733 -0.14694522 0.014231831
000360 2e c4 c5 be 17 f2 17 3d 27 a3 a0 3d bf 12 d9 bd
       -0.38626236 0.03709611 0.07843619 -0.10599279
000370 0d 0e 1a be 45 cb 3c 3e fc 84 51 bc 80 67 bb bd
       -0.15044422 0.18436916 -0.012788054 -0.091506004
000380 0e 6a f8 bd 99 f4 ad 3d 4b 5c 11 be a3 c7 74 3b
       -0.12129603 0.08493919 -0.14195363 0.0037350438
000390 cb 89 9b 3d 75 c8 29 be 14 e4 24 bd 42 3d 46 3e
       0.07594641 -0.16580375 -0.040256575 0.19359306
0003a0 16 cd 09 be e9 9b 89 3e a7 f6 56 be ec 1e 70 bd
       -0.1345714 0.26876763 -0.20992528 -0.05862324
0003b0 e0 22 60 3e 8a 9d 33 bb d9 54 37 be a3 f9 9e be
       0.21888304 -0.0027407133 -0.1790346 -0.31049833
0003c0 ec a6 79 bd a7 21 6e bc f6 d0 b0 3e 97 74 30 3d
       -0.060950205 -0.0145343905 0.34534425 0.04307994
0003d0 a4 5c aa 3d b1 9d 31 be 6f 01 b1 3d df 9c 5b 3d
       0.08318451 -0.17345311 0.086428516 0.0536164
0003e0 6f 93 4e 3e fa 41 ff 3c ef 44 84 bd 1c 76 8c be
       0.20173429 0.03115939 -0.064584605 -0.2743386
0003f0 02 45 1f be 81 29 c7 bb b0 b1 55 bd 3e 1e 90 3e
       -0.15553668 -0.0060779457 -0.05217141 0.28148073

lstm.weight_hh_l0 f4 [200, 50]
000000 f9 16 cd bd f8 2e 30 be ca 84 cf bd 91 d4 f1 bd
       -0.10014147 -0.17205417 -0.101327494 -0.11808122
000010 41 14 1a 3d 28 5c 19 be a2 e8 b8 bd c2 98 a9 bd
       0.037616972 -0.14976561 -0.09028746 -0.08281089
000020 98 6d 7d 3d de 6c c7 3d 5f 88 af 3d e3 28 0e bd
       0.061872095 0.09737562 0.085709326 -0.03470696
000030 c0 b9 86 3c b7 90 a9 3c fa 79 7a 3e 78 db 1a be
       0.016445994 0.020698888 0.24460593 -0.15122783
000040 44 64 d0 bd fb 47 a1 bd 05 00 bf bd de 9b c3 bd
       -0.10175374 -0.07875057 -0.093261756 -0.09551214
000050 6f 93 a5 bd 43 4a 33 bd cc 51 d3 bd 50 ec b4 bd
       -0.08084761 -0.043771993 -0.10318336 -0.088341355
000060 db a6 d4 3d 0e b8 5a ba d0 ec c7 3d 3d b0 c5 3d
       0.10383388 -0.00083434663 0.09761965 0.096527554
000070 a4 3f 1d be 61 a2 3a be 14 4a 25 bc bf ed ae bc
       -0.15356308 -0.18226005 -0.010088462 -0.0213536
000080 ef 5d 19 bd ee ba a0 3d 17 7b 91 3c d2 4e 41 3c
       -0.037443098 0.07848154 0.01775889 0.011798577
000090 07 27 2b bd 0c c9 19 3e 2e cc c2 bd f7 fe 8a bc
       -0.041785266 0.150181 -0.095116004 -0.01696728
0000a0 92 74 16 be 70 e5 d4 3d 0a 3c 8f 3d 04 f6 3a be
       -0.14692906 0.10395324 0.069938734 -0.1825791
0000b0 2f 0c 47 3d bb 16 36 3e a4 10 1d bd 93 41 d1 bd
       0.048595604 0.17782108 -0.038345948 -0.102175854
0000c0 25 6a 13 bd 15 a8 5d 3d 4a 98 9e 3d 5a 0d 85 3c
       -0.0359899 0.054115374 0.077438906 0.016241718
0000d0 26 b5 91 bd a9 f1 d1 bd 61 ad 1a 3e b8 ed 9c 3d
       -0.071146294 -0.10251171 0.15105201 0.07662529
0000e0 d3 12 07 bd 99 01 39 bd 90 e8 96 3d 39 8f 3c bd
       -0.032976937 -0.04516754 0.073685765 -0.046035025
0000f0 18 3c 70 3d de a7 18 3e 21 ff c0 bc 34 48 97 3d
       0.05865106 0.14907786 -0.023559155 0.073868185
000100 94 c6 fb 3c 7a 07 0c bd 36 98 d7 3d 39 4e 94 3d
       0.030734338 -0.034186818 0.10527079 0.07241482
000110 49 4a 66 3b a5 4f 14 3e c3 d4 d6 bd aa 6f 48 3d
       0.0035139492 0.14483507 -0.104898 0.048934616
000120 16 83 8a 3d 16 d2 7a bb 87 40 99 3d 94 83 fe 3d
       0.06763284 -0.0038272194 0.07483011 0.1242744
000130 ae 0c 97 bd ec de 3a bd 07 75 4c bd f8 39 8f bd
       -0.07375465 -0.04562275 -0.049916293 -0.069934785
000140 10 03 c6 bc f1 69 72 3d 05 be ab 3b 41 d8 8e 3d
       -0.024171382 0.059183065 0.005241158 0.06974841
000150 3e 63 e7 3d bd 66 0f be 5a 58 22 bd 01 b6 ed bd
       0.11298226 -0.14004035 -0.03963504 -0.1160698
000160 f1 0a 3e bd 92 77 0b 3d 34 aa 8f bd ec 44 04 3e
       -0.046397153 0.034049578 -0.070148855 0.12916917
000170 f8 da 2c 3e 4b 0f cd 3d 41 a4 39 be 0b 6a 87 bb
       0.16880405 0.100126825 -0.18129064 -0.0041325144
000180 0c c1 ea 3d 46 da 09 3c ff 74 96 3d d1 b8 27 3e
       0.11462602 0.008413857 0.07346534 0.16379096
000190 eb 85 2c be fc 8c b0 3d b4 ac 41 bd 27 e5 4c be
       -0.1684796 0.08620641 -0.047283843 -0.2000929
0001a0 da 19 49 3d 6e 3d 8a bd e0 a5 18 3d 32 8c cb 3d
       0.04909692 -0.06749998 0.037267566 0.099388495
0001b0 bc cf 46 be 8c 56 25 3e b2 fd f5 3d 73 63 5e 3d
       -0.19415182 0.16146296 0.12011279 0.05429406
0001c0 4a 28 b2 3d de 0d 2e bc 8c b2 17 b8 4d 83 1b bd
       0.08699091 -0.010623423 -3.616749e-05 -0.037967015
0001d0 da 36 5d 3d 74 56 0b 3d c1 10 e9 bd b9 ca fb 3d
       0.05400739 0.034017995 -0.11380149 0.12294526
0001e0 ef 57 33 be 64 5c 74 bd 04 5a cd bd 57 60 b3 3d
       -0.17514013 -0.059658423 -0.10026935 0.0875861
0001f0 70 29 27 3d da 8a b9 bd 3c 51 9b bc d8 fc c2 3d
       0.040811002 -0.09059687 -0.018959634 0.09520882
000200 2b 29 d6 3d fb 16 e8 bd 62 f4 11 bd 2e 6b 6f 3e
       0.10457071 -0.11332508 -0.035633452 0.2338073
000210 7c 27 45 be fa 38 f6 bb 63 f4 86 3d 79 82 34 be
       -0.19253343 -0.0075141164 0.06589582 -0.17627896
000220 40 b8 b9 bd b3 b8 44 be a1 3d d9 bd 85 bd 27 3d
       -0.09068346 -0.19211082 -0.10607458 0.040952224
000230 a6 56 f4 3c ca 9c ee 3b cc 7f 38 3e 36 e2 02 3d
       0.029826473 0.0072818743 0.180175 0.031954013
000240 ec 24 56 be ed cb b4 3b 46 9e 5a 3e 5f 34 fc bd
       -0.20912522 0.005517474 0.21349439 -0.123146765
000250 f9 0f 1b be e4 90 34 3e 64 b5 be bc 16 55 13 3d
       -0.15142812 0.17633396 -0.023279853 0.035969816
000260 5e 81 3a 3d 47 bd 4a 3e 7c 7d 37 be 30 b7 37 3c
       0.04553353 0.19798766 -0.17918962 0.011213109
000270 ca 1d c4 bd f4 f9 86 bd 76 e4 f1 bc f6 08 c2 bd
       -0.09575994 -0.065906435 -0.029527884 -0.094743654
000280 7c 57 c3 bd 9d d6 05 bc f0 80 6e bd c9 ff aa bd
       -0.09538171 -0.008168844 -0.058228433 -0.083495684
000290 b1 f7 cf ba 52 35 44 3c 1f 23 0b 3e fc 8b 37 bd
       -0.0015866664 0.011975603 0.13587616 -0.044811234
0002a0 02 2a 00 3e 33 43 eb bd 5a 19 05 3e 53 d1 2d bd
       0.12516025 -0.114874266 0.12997952 -0.042435955
0002b0 8d ef e8 3c 42 83 00 bc 95 9d c8 3d 5c f2 02 3d
       0.02843454 -0.007843794 0.097956814 0.031969413
0002c0 e4 0d 06 3d 8a 1b bb 3c ea 57 64 bd fe f0 08 bc
       0.03272809 0.02284028 -0.055747904 -0.008358238
0002d0 18 c6 2f be 26 e9 0b be 4c dd 96 bd ef 67 40 3e
       -0.1716541 -0.13663158 -0.07366428 0.18789648
0002e0 aa 49 1d be 8f 92 b0 3c 6c 23 e7 bd a4 ee 9f bd
       -0.15360132 0.02155426 -0.11286053 -0.07809189
0002f0 97 73 22 3e 49 8f 77 3d 26 72 01 3d 7b 9b 53 3d
       0.15864407 0.06043938 0.031603 0.05166195
000300 3d a0 97 bd 4d 01 e7 bd 78 d5 2b bc 5f 2f 8a bd
       -0.0740361 -0.11279545 -0.010487907 -0.067473166
000310 84 f4 0e be 4c 33 4e 3e 5c 0e bb 3d 00 51 9f 3d
       -0.13960463 0.20136756 0.09133598 0.077791214
000320 b8 44 a0 3d 66 cd 4f 3e 08 39 df bd 3c 09 a2 bb
       0.07825607 0.20293197 -0.1089955 -0.0049449485
000330 7c 14 02 3c 80 94 ab 3d cd d9 b6 bd 66 4e 4c 3d
       0.007939454 0.083779335 -0.08928261 0.049879454
000340 61 3b 75 bc d2 2e a8 3d 68 5a 0b 3e 84 5f c7 bd
       -0.01496777 0.08212055 0.13608706 -0.09735015
000350 f4 07 6b bd a1 6b 9f bd 84 2a 1e be 2a 07 b0 bd
       -0.05738063 -0.077842005 -0.15445906 -0.085951164
000360 ef cb 73 bd 62 60 1e bd ee 4e 32 bd 66 5d 91 bc
       -0.059520658 -0.038666137 -0.043532304 -0.017744731
000370 64 07 11 37 d5 90 4c bc ab db 4f 3e 42 42 ea bd
       8.644394e-06 -0.0124857025 0.2029864 -0.11438419
000380 8d b5 34 3d 69 51 13 be 9e 58 dd 3d d2 f2 8d 3d
       0.044118453 -0.14386524 0.10807918 0.0693108
000390 ed d7 be 3d c9 b8 f1 3d 17 13 a6 3d 2a 51 64 be
       0.09318528 0.11802823 0.0810911 -0.22296587
0003a0 5a 9b 17 3e 3a 05 ca 3d d8 2f 86 bd 4e 76 1d 3e
       0.14805356 0.09864278 -0.06552094 0.15377161
0003b0 f0 5c 33 3e b0 7b 38 be 64 84 e2 bc c9 90 d2 3c
       0.17515922 -0.18015933 -0.02765102 0.025703805
0003c0 21 d5 c8 bb 2a 16 74 bc 9d cc 32 b9 91 e2 56 3d
       -0.0061289226 -0.014897862 -0.00017051627 0.052462164
0003d0 d7 cc f1 3d e6 cf 49 bc 2f c2 50 bd a8 6f 26 3b
       0.11806648 -0.012317633 -0.050966438 0.0025396142
0003e0 b8 25 5b 3e b7 db bd 3a 95 1e 6b bd 25 6e e5 bc
       0.21401107 0.0014485036 -0.057402212 -0.028006623
0003f0 a9 fd d9 3d 74 50 db bd f6 c5 38 3e 14 b8 e1 bb
       0.10644085 -0.107087046 0.18044266 -0.006888399

lstm.bias_ih_l0 f4 [200]
000000 b9 6a 0c be bb 54 d8 3c d2 b9 01 bd 7c 89 35 3e
       -0.13712586 0.02640759 -0.031671353 0.17728227
000010 c8 66 2a 3e dc 86 61 be 30 79 72 be 0e 97 1a be
       0.1664077 -0.22024101 -0.23679042 -0.15096685
000020 e8 f8 2d bd cc 41 db bd 75 8e a6 bc ce a8 91 3d
       -0.042473704 -0.10705909 -0.0203316 0.07112275
000030 55 49 d0 bd 63 4b 16 be 44 49 09 be 55 ec 34 be
       -0.10170237 -0.14677195 -0.13406855 -0.17668279
000040 d1 e0 82 be 3a ee 39 3d ab 54 0f bd 14 8a 6b be
       -0.25562146 0.045393206 -0.034992855 -0.23001891
000050 cb f1 bf be e5 25 80 3c 56 05 44 bb a3 a8 54 be
       -0.3748916 0.01564307 -0.0029910407 -0.20767455
000060 ff 73 93 be 57 b8 93 be 24 80 43 be ad ba 98 bd
       -0.28799435 -0.28851578 -0.1909185 -0.074574806
000070 da 21 bf bd 4a 3c 92 bd 68 a1 6a 3b e3 2e c0 bd
       -0.093326285 -0.071404055 0.0035801772 -0.09383943
000080 6d 02 c4 bd 2c 4d 45 be 7a 10 ec bd 42 25 6d 3c
       -0.09570775 -0.1926772 -0.1152658 0.014474215
000090 da e9 a4 3c 28 54 d8 bd a2 9e b4 bd 83 6f bb bd
       0.02013104 -0.105629265 -0.08819319 -0.091521285
0000a0 3e 91 10 be bb 07 2b be ae ff 9f be 53 04 2a bd
       -0.14117905 -0.16702168 -0.31249756 -0.04150803
0000b0 b2 ac e5 3d dd 58 d6 bd b3 59 79 bc dc 24 fd bd
       0.1121458 -0.10466168 -0.01521914 -0.12360546
0000c0 0e 67 44 be 47 ef a0 bc d5 8e 2c 3d 85 4e 3e be
       -0.19179937 -0.019645346 0.042128403 -0.1858464
0000d0 3a 31 5d bd fd e4 c1 3d be af a1 3d ca 22 90 bd
       -0.054002024 0.09467504 0.07894848 -0.070378855
0000e0 b1 b6 b2 bc 42 4f 19 be 7b 67 2c be 9a de 41 3c
       -0.02181563 -0.1497164 -0.1683635 0.0118328575
0000f0 32 42 ae 3c 66 f2 a2 bd ce 1d fd bc a3 53 59 bd
       0.021271799 -0.0795639 -0.030898001 -0.053058278
000100 1d 91 26 be 0b b7 26 be f4 e1 20 3d de 50 ee bd
       -0.16266294 -0.16280763 0.039277986 -0.11636518
000110 dc f1 8b 3d b8 f6 88 be f1 b7 39 3d 3a 69 55 bd
       0.068332404 -0.2675073 0.045341436 -0.052102305
000120 c7 76 b9 bd 13 74 10 bd ca 4b 07 be 13 0f 90 bc
       -0.09055858 -0.035266947 -0.13212505 -0.017585313
000130 fa cd 2a be fc 44 c8 bd 3d 2c 5c 3c 5a 80 bc bd
       -0.16680136 -0.09778783 0.013438282 -0.092041686
000140 1a 86 82 3d 5b cd 5d 3d ca 3d 41 3d e1 63 ac bc
       0.06373234 0.05415092 0.047178067 -0.02104372
000150 a9 f6 d4 ba 19 83 18 bd 5c de 5a be 98 76 00 be
       -0.0016247827 -0.0372344 -0.21373886 -0.1254524
000160 c4 f2 4c be 76 ae 7f bd 4f 19 e5 bd 31 85 fc bc
       -0.20014483 -0.06242224 -0.11186468 -0.03082523
000170 0b 25 82 bc d9 5f d3 bd 3f d3 e7 bd f0 65 62 be
       -0.015886804 -0.10321016 -0.11319589 -0.22109199
000180 e5 b4 33 3e 5a d9 15 be 69 95 07 3d 14 b6 54 be
       0.17549475 -0.14633694 0.033101473 -0.20772582
000190 f9 38 9f bd da a1 b0 3c 3f 38 e2 3c c9 86 72 3d
       -0.077745385 0.021561552 0.02761471 0.059210572
0001a0 f8 c0 05 bd 45 7f 43 3d c1 09 14 bd 51 1b 5c bc
       -0.032654732 0.047728796 -0.036142115 -0.013434247
0001b0 cc 6f a5 3d eb 3d 34 3d 7d fd 8e 3d 60 71 4c bd
       0.08077964 0.044004362 0.06981943 -0.04991281
0001c0 1b d3 5f bd f5 8f 3b 3d 90 b1 30 be 87 1a 42 3c
       -0.054644685 0.045791585 -0.17255235 0.011847145
0001d0 62 db e8 bd 27 10 a8 3d d9 88 c3 bb cd e2 e2 bd
       -0.11369969 0.08206206 -0.0059672412 -0.11078415
0001e0 29 8f 2c be f1 9c f4 bc 43 93 ff bc 69 9b 2f 3d
       -0.16851486 -0.029859992 -0.03119815 0.04287282
0001f0 be ca 88 3d d9 57 97 bd 84 18 8c 3d 9e 10 c9 3d
       0.06679295 -0.073898025 0.068406135 0.098176226
000200 03 61 9b 3c 9b ad 54 3d bf 72 17 bd d8 b3 40 bd
       0.018967157 0.051923376 -0.036974665 -0.047046512
000210 74 12 ae 3d 74 a7 94 3d 45 db 27 3d b3 e4 3b be
       0.084996134 0.07258502 0.040980596 -0.1834896
000220 f8 d8 b5 bd 13 0d fc bd 28 31 b6 bc cb 6e 73 3b
       -0.08879274 -0.12307181 -0.022240236 0.0037144895
000230 b3 ab 06 be f1 ba 7a 3d f9 ef ac bd da 7d 1e 3e
       -0.13151436 0.061213437 -0.08444209 0.15477696
000240 6a 12 23 3e 1b ce 90 3b 8d ed 44 be b5 cd bc ba
       0.15924993 0.004419101 -0.19231243 -0.0014404567
000250 7a 0b e8 3c 26 d8 b0 bc 9c 36 f7 bb 03 fa 96 bc
       0.028325785 -0.021587443 -0.0075443517 -0.018429762
000260 19 30 13 be 56 c5 11 bc 2e 39 cd bd 6d c2 e6 ba
       -0.14373817 -0.008897146 -0.10020672 -0.0017605551
000270 65 43 79 bd 70 68 02 bd 69 1b 53 bd 9a 0a 3b bd
       -0.060855288 -0.03183788 -0.051539812 -0.045664407
000280 91 c0 4f be c6 87 1f be b2 c0 08 be 06 9e 7c bd
       -0.20288302 -0.15579137 -0.13354757 -0.06167414
000290 2a 7d 11 be 4e ab f2 3a c6 e8 4b be 09 96 1f be
       -0.14207903 0.0018514188 -0.19913015 -0.15584578
0002a0 12 04 5a be a4 ea 5f be 62 e4 a6 bd 35 83 2c 3d
       -0.21290615 -0.21866852 -0.08149029 0.042117316
0002b0 ff 7b 88 3d b2 12 0e 3d be 3b 50 be 9f 8d ab bd
       0.066642754 0.034685798 -0.2033529 -0.083766215
0002c0 bb 83 00 bd 18 db e4 bd b0 e8 cc bd 62 92 e5 bd
       -0.031375628 -0.11174601 -0.10005319 -0.11209561
0002d0 de e2 6a be fb 60 5d bd bb 13 74 bd 3e 44 53 be
       -0.22938105 -0.054047566 -0.05958913 -0.20631501
0002e0 41 b5 06 bd e0 70 23 be 10 17 c9 3d 6f 3f 6e 3d
       -0.0328877 -0.15961027 0.09818852 0.058165964
0002f0 56 81 a4 3d 6c d3 5a be 83 d0 68 be 08 f7 47 be
       0.08032481 -0.21369714 -0.22735791 -0.19527829
000300 3e 75 25 be dd 6d 1a be 55 db f2 bd bb c1 29 bd
       -0.16158006 -0.15080972 -0.118582405 -0.04144452
000310 10 bd e0 bd 7b af 63 3d 3b 6d 4a be 8d 7b 2a be
       -0.10973561 0.055587273 -0.1976823 -0.16648693

lstm.bias_hh_l0 f4 [200]
000000 0f 32 b9 bc 31 8e 89 bc 99 d9 47 bd 7c cf 39 3e
       -0.022606878 -0.016791435 -0.0487915 0.18145555
000010 76 2c 61 3c 3b 44 6a 3b 52 36 d1 bd 7f f5 6b bd
       0.0137435105 0.0035746235 -0.10215439 -0.05760717
000020 e8 40 d8 bd 88 84 6b be 91 c5 89 bc d1 99 da 3b
       -0.10559255 -0.22999775 -0.01681784 0.0066711684
000030 51 01 8c be d1 c4 a8 bd 4b 15 e4 bc 61 51 2b 3c
       -0.27344754 -0.08240665 -0.027842185 0.010456414
000040 d8 83 9c be 78 c0 94 bc fd 9a ae bd c8 57 65 bd
       -0.3056934 -0.018158183 -0.085256554 -0.055991918
000050 08 43 03 be 93 a1 06 be d1 60 5e bc 09 e1 0c bc
       -0.12818539 -0.13147573 -0.0135728875 -0.008598574
000060 cc 5e 96 bd 86 d8 36 be 20 b4 01 be e9 d3 bd bc
       -0.073423 -0.17856035 -0.12666368 -0.023172336
000070 a5 ee 4f be 77 03 41 bd 0b eb e1 bb 67 7e de 3c
       -0.2030588 -0.047122445 -0.0068944744 0.027159883
000080 95 5f cf bd f1 89 23 be 1e e2 f6 bd b1 94 04 bc
       -0.10125653 -0.15970589 -0.12054847 -0.008092091
000090 c4 2c 15 be 80 e3 35 bd aa e6 69 be 24 de 56 be
       -0.14567858 -0.044406414 -0.22841898 -0.20983177
0000a0 69 57 f0 bd 3f 4a 9a be 55 a9 04 be 01 d1 05 bd
       -0.11735422 -0.3013477 -0.1295522 -0.032670025
0000b0 f2 f8 a6 3d 4c ab df bc 54 5b 25 3e 31 6f af 3d
       0.08152951 -0.02730336 0.1614812 0.0856613
0000c0 5b 0d 32 bd b8 85 3b bc 99 7a 62 3d 61 41 35 be
       -0.043469768 -0.011445455 0.0552927 -0.17700721
0000d0 da e8 0a 3d 19 d3 ca 3d fa 4b ac 3d bf d3 0a be
       0.03391347 0.09903545 0.08412929 -0.13557337
0000e0 77 38 22 bd 77 9f e2 bd 65 62 a3 bd 3d 7d e7 bb
       -0.03960463 -0.11065572 -0.07977752 -0.00706449
0000f0 b7 6d 44 bc b5 59 3c be 5f ec 4f be d1 26 bf bd
       -0.011989049 -0.18393596 -0.20305012 -0.093335755
000100 c3 de 09 be 23 1c 09 be be f5 55 bb aa 26 a4 bd
       -0.13463883 -0.1338964 -0.0032647694 -0.08015187
000110 20 1b b3 bd 30 d5 85 be 41 9d 81 bb c2 d3 50 3b
       -0.08745408 -0.26139212 -0.0039555137 0.0031864499
000120 f5 08 e8 bd 20 8c 48 be 15 a3 70 bb 09 93 1e bd
       -0.113298334 -0.19584703 -0.0036718298 -0.038714442
000130 1b 7a 93 bb fe aa 55 bb 2d cc 1c 3d d8 70 8e 3d
       -0.00450064 -0.003260314 0.038280655 0.06955117
000140 40 1c cc bd 8e df 7f bd 20 5a c2 bd 6b fe 0b bd
       -0.09966326 -0.062469058 -0.09489846 -0.03417818
000150 81 7b 8f bd 31 89 03 be f8 9b be 3c 82 70 78 be
       -0.070059784 -0.12845303 0.023267731 -0.24261668
000160 5e bf 12 be da f9 8e 39 dd 8b 8f 3c 2a 12 e2 bd
       -0.14330813 0.00027270505 0.017522747 -0.11038621
000170 fa 40 22 bc d9 94 a5 3c 37 6d 17 3d ec 81 52 bd
       -0.009903187 0.020212578 0.03696939 -0.051393434
000180 d9 4a 2c 3d bc 7c 18 be 00 ee a7 bd 17 68 0c bd
       0.042063568 -0.14891332 -0.08199692 -0.034278955
000190 e7 df 65 bc 77 11 1c 3d fa 4a f6 bd c5 56 73 3d
       -0.014030433 0.038102593 -0.120260194 0.05940892
0001a0 2b d4 66 be 75 14 bb 3c 23 3c bb bc 67 9f 8a 3d
       -0.22541873 0.022836903 -0.022855824 0.06768685
0001b0 e0 9b 90 bd ea 16 02 3e 35 ba a8 3d ca 26 19 be
       -0.07060981 0.12704054 0.08238641 -0.14956203
0001c0 a3 e9 c7 3d e5 0a 13 3d cf c9 d8 bd 63 5d a7 bd
       0.097613595 0.03589906 -0.10585367 -0.08172109
0001d0 86 fe c1 3d 61 20 b2 3b bf 89 2e be b9 6f 0b bb
       0.094723746 0.005435989 -0.17044733 -0.0021276309
0001e0 6a fc d7 3d 16 3d 93 bc 3f 7e c9 bc 40 07 f9 bd
       0.10546191 -0.017973464 -0.024596332 -0.12159586
0001f0 f9 f4 2e bd ca e9 01 3e d3 13 1c bc a3 e1 0a 3d
       -0.042714093 0.1268684 -0.009526211 0.03390659
000200 df 2d 72 bd aa 8b 88 3c 8b da 94 3d 76 ee 4c 3d
       -0.059125777 0.01666816 0.07268246 0.0500321
000210 6c 31 01 3d 66 f0 ba 3d 02 6b a2 bd fb 39 0a be
       0.031541273 0.091278836 -0.07930566 -0.1349868
000220 c0 b9 be bd b8 3b 24 be e8 7c 07 3d 5a ce 69 bd
       -0.09312773 -0.16038406 0.033078104 -0.057081558
000230 d9 ac 27 be a6 74 b0 bd d4 9c ba bc 0a 07 a2 3d
       -0.1637453 -0.08615999 -0.02277986 0.07911499
000240 4b 2b ae 3d 90 55 94 bb 97 51 73 be 95 ff cd 3d
       0.08504351 -0.0045268014 -0.23761593 0.10058514
000250 3a c7 3b be ce 98 d2 3c 64 48 54 bd b0 55 46 bb
       -0.18337718 0.025707629 -0.05182685 -0.0030263476
000260 34 bf 01 bd 00 fa e9 bc 3d ec 36 be 44 f5 29 be
       -0.031676486 -0.028561592 -0.17863555 -0.16597468
000270 24 a5 ac bc c5 c8 45 be 0b 0e 05 3d a4 0c 5e bd
       -0.021074839 -0.19314869 0.032484096 -0.054211274
000280 d3 63 7b be a7 93 dc bd 0c 82 94 bd fc c3 43 be
       -0.24549799 -0.1077035 -0.07251367 -0.19117731
000290 6c a9 bc bb 52 d9 80 3a 2e ea 5d be b4 92 e3 bc
       -0.0057575013 0.0009830392 -0.21671364 -0.027779914
0002a0 07 77 3b be 6a 2b 23 bd 4d 79 fd bd 44 7d 5a 3d
       -0.18307124 -0.039836325 -0.12376652 0.05334212
0002b0 d2 2e 63 3c a5 e8 54 be 6c 1d 29 be 99 74 95 be
       0.013866143 -0.20791872 -0.1651513 -0.2919052
0002c0 8f e4 e4 bd 5a fc 8a bd c4 24 0b be 9f fb 61 be
       -0.111764066 -0.067864135 -0.13588244 -0.22068642
0002d0 ad 95 2b bd b3 a3 33 bd b7 9e 63 be 04 bd 2f be
       -0.04189079 -0.043857288 -0.22228514 -0.17161947
0002e0 ae 29 0d be 6e 80 f6 bd 64 b9 e8 3b 74 ab 3f be
       -0.13785431 -0.12036215 0.0071021784 -0.18717748
0002f0 3a eb 5e 3c 06 3b 6f be fd a5 56 be 54 7c 77 bd
       0.013605887 -0.2336236 -0.20961757 -0.060421303
000300 d4 93 d4 bd b6 98 7d 3d 08 c8 08 be da 41 21 be
       -0.103797585 0.061913215 -0.13357556 -0.15747777
000310 54 97 e4 bd b7 20 2a be df 17 57 bd 47 dd 33 be
       -0.11161676 -0.16614042 -0.052513 -0.1756488

fc.weight f4 [1, 50]
000000 76 8e 0e bd 9c 32 86 bc 12 5d fa 3b 90 33 b3 3d
       -0.03480383 -0.016381554 0.0076404894 0.08750069
000010 2f eb cf bd 2f f5 09 bd 2d f1 99 3b 72 3e 95 bb
       -0.101522796 -0.03368109 0.00469794 -0.004554563
000020 d0 c7 f2 3b 8d fe 87 3c 30 7f b5 3b 2a b8 ae bd
       0.0074090734 0.016600871 0.0055388436 -0.0853122
000030 8c 61 8a b9 1e 15 93 3a 18 12 ed 3c 13 37 57 bc
       -0.0002639409 0.0011221503 0.028939292 -0.013135689
000040 01 26 b2 ba 48 4a a5 3b f9 30 00 bc 42 d7 dc 3a
       -0.0013591648 0.0050442554 -0.007824176 0.001684882
000050 52 16 6e bc 1e 9c c1 bb 58 82 c9 3d 72 c2 50 bb
       -0.014531689 -0.005908503 0.09839314 -0.003185418
000060 a4 72 ad 3b a8 6e 62 ba da 29 20 bb eb b2 d2 3c
       0.0052932072 -0.0008637705 -0.0024439008 0.02572008
000070 80 53 58 bb 7b 02 c4 ba f1 4c 78 3c 5d c3 37 3d
       -0.0033008754 -0.0014954353 0.015155063 0.044864047
000080 f1 63 b5 3c 4b e8 01 bb f9 68 f9 ba b6 3a 94 bc
       0.022142382 -0.0019822295 -0.0019028477 -0.018094402
000090 0e 76 ad 3d 72 78 40 3b 0c 34 6c 3c e4 59 a3 3c
       0.08469783 0.0029368666 0.014416706 0.019940324
0000a0 f4 37 4c bc 83 74 b2 3a 77 46 8f bb 02 2e 55 bc
       -0.012464512 0.0013615045 -0.0043724137 -0.013011457
0000b0 af 37 4d 3d 95 1c 16 3d 45 5c a2 bc ac 66 88 bd
       0.050101932 0.03664835 -0.019819388 -0.06660208
0000c0 7f 12 7c bb 56 37 74 bd
       -0.0038463173 -0.059623085
